…
unique model id: model_bigger_biggest_lstm_v2-Nadam0,0015
optimizer: Nadam<tf.Variable 'learning_rate:0' shape=() dtype=float32, numpy=0.0015>
-------------------------------
loss : [… tp : [… tn : [… accuracy : [… precision : [… val_loss : [… val_tp : [… val_tn : [… val_accuracy : [… val_precision : [… 1120    0]
 [ 227    0]]
*****************************************
model_bigger_biggest_lstm_v3
Model: "sequential_9"
_________________________________________________________________
 Layer (type)                Output Shape              Param #   
=================================================================
 lstm_9 (LSTM)               (None, 64)                18688     
                                                                 
 dense_23 (Dense)            (None, 64)                4160      
                                                                 
 dense_24 (Dense)            (None, 32)                2080      
                                                                 
 dense_25 (Dense)            (None, 16)                528       
                                                                 
 dense_26 (Dense)            (None, 4)                 68        
                                                                 
 dense_27 (Dense)            (None, 1)                 5         
                                                                 
=================================================================
Total params: 25,529
Trainable params: 25,529
Non-trainable params: 0
_________________________________________________________________
*****************************************
-------------------------------
unique model id: model_bigger_biggest_lstm_v3-Adam0,001
…
unique model id: model_bigger_biggest_lstm_v3-Nadam0,0015
optimizer: Nadam<tf.Variable 'learning_rate:0' shape=() dtype=float32, numpy=0.0015>
-------------------------------
loss : [… tp : [… tn : [… accuracy : [… precision : [… val_loss : [… val_tp : [… val_tn : [… val_accuracy : [… val_precision : [… 1120    0]
 [ 227    0]]
*****************************************
model_bigger_biggest_lstm_v4
Model: "sequential_10"
_________________________________________________________________
 Layer (type)                Output Shape              Param #   
=================================================================
 lstm_10 (LSTM)              (None, 16)                1600      
                                                                 
 dense_28 (Dense)            (None, 4)                 68        
                                                                 
 dense_29 (Dense)            (None, 4)                 20        
                                                                 
 dense_30 (Dense)            (None, 4)                 20        
                                                                 
 dense_31 (Dense)            (None, 4)                 20        
                                                                 
 dense_32 (Dense)            (None, 4)                 20        
                                                                 
 dense_33 (Dense)            (None, 1)                 5         
                                                                 
=================================================================
Total params: 1,753
Trainable params: 1,753
Non-trainable params: 0
_________________________________________________________________
*****************************************
-------------------------------
unique model id: model_bigger_biggest_lstm_v4-Adam0,001
…
unique model id: model_bigger_biggest_lstm_v4-Nadam0,0015
optimizer: Nadam<tf.Variable 'learning_rate:0' shape=() dtype=float32, numpy=0.0015>
-------------------------------
loss : [… tp : [… tn : [… accuracy : [… precision : [… val_loss : [… val_tp : [… val_tn : [… val_accuracy : [… val_precision : [… 1120    0]
 [ 227    0]]
*****************************************
model_bigger_biggest_lstm_v5
Model: "sequential_11"
_________________________________________________________________
 Layer (type)                Output Shape              Param #   
=================================================================
 lstm_11 (LSTM)              (None, 16)                1600      
                                                                 
 dense_34 (Dense)            (None, 4)                 68        
                                                                 
 dense_35 (Dense)            (None, 4)                 20        
                                                                 
 dense_36 (Dense)            (None, 4)                 20        
                                                                 
 dense_37 (Dense)            (None, 4)                 20        
                                                                 
 dense_38 (Dense)            (None, 4)                 20        
                                                                 
 dense_39 (Dense)            (None, 4)                 20        
                                                                 
 dense_40 (Dense)            (None, 4)                 20        
                                                                 
 dense_41 (Dense)            (None, 1)                 5         
                                                                 
=================================================================
Total params: 1,793
Trainable params: 1,793
Non-trainable params: 0
_________________________________________________________________
*****************************************
-------------------------------
unique model id: model_bigger_biggest_lstm_v5-Adam0,001
…
unique model id: model_bigger_biggest_lstm_v5-Nadam0,0015
optimizer: Nadam<tf.Variable 'learning_rate:0' shape=() dtype=float32, numpy=0.0015>
-------------------------------
loss : [… tp : [… tn : [… accuracy : [… precision : [… val_loss : [… val_tp : [… val_tn : [… val_accuracy : [… val_precision : [… 0 1120]
 [   0  227]]
*****************************************
model_bigger_biggest_lstm_v6
Model: "sequential_12"
_________________________________________________________________
 Layer (type)                Output Shape              Param #   
=================================================================
 lstm_12 (LSTM)              (None, 16)                1600      
                                                                 
 dense_42 (Dense)            (None, 8)                 136       
                                                                 
 dense_43 (Dense)            (None, 8)                 72        
                                                                 
 dense_44 (Dense)            (None, 8)                 72        
                                                                 
 dense_45 (Dense)            (None, 8)                 72        
                                                                 
 dense_46 (Dense)            (None, 8)                 72        
                                                                 
 dense_47 (Dense)            (None, 8)                 72        
                                                                 
 dense_48 (Dense)            (None, 8)                 72        
                                                                 
 dense_49 (Dense)            (None, 1)                 9         
                                                                 
=================================================================
Total params: 2,177
Trainable params: 2,177
Non-trainable params: 0
_________________________________________________________________
*****************************************
-------------------------------
unique model id: model_bigger_biggest_lstm_v6-Adam0,001
…
unique model id: model_bigger_biggest_lstm_v7-Nadam0,0015
optimizer: Nadam<tf.Variable 'learning_rate:0' shape=() dtype=float32, numpy=0.0015>
-------------------------------
loss : [… tp : [… tn : [… accuracy : [… precision : [… val_loss : [… val_tp : [… val_tn : [… val_accuracy : [… val_precision : [… 1 1119]
 [   0  227]]
*****************************************
model_bigger_biggest_lstm_v8
Model: "sequential_14"
_________________________________________________________________
 Layer (type)                Output Shape              Param #   
=================================================================
 lstm_14 (LSTM)              (None, 8)                 544       
                                                                 
 dense_53 (Dense)            (None, 8)                 72        
                                                                 
 dense_54 (Dense)            (None, 8)                 72        
                                                                 
 dense_55 (Dense)            (None, 8)                 72        
                                                                 
 dense_56 (Dense)            (None, 8)                 72        
                                                                 
 dense_57 (Dense)            (None, 8)                 72        
                                                                 
 dense_58 (Dense)            (None, 8)                 72        
                                                                 
 dense_59 (Dense)            (None, 8)                 72        
                                                                 
 dense_60 (Dense)            (None, 1)                 9         
                                                                 
=================================================================
Total params: 1,057
Trainable params: 1,057
Non-trainable params: 0
_________________________________________________________________
*****************************************
-------------------------------
unique model id: model_bigger_biggest_lstm_v8-Adam0,001
…
