…
unique model id: model_bigger_biggest_lstm_v7-Nadam0,1
optimizer: Nadam<tf.Variable 'learning_rate:0' shape=() dtype=float32, numpy=0.1>
-------------------------------
loss : [… tp : [… tn : [… accuracy : [… precision : [… val_loss : [… val_tp : [… val_tn : [… val_accuracy : [… val_precision : [… 0 1120]
 [   0  227]]
*****************************************
model_bigger_biggest_lstm_v8
Model: "sequential_14"
_________________________________________________________________
 Layer (type)                Output Shape              Param #   
=================================================================
 lstm_14 (LSTM)              (None, 256)               271360    
                                                                 
 dense_36 (Dense)            (None, 8)                 2056      
                                                                 
 dense_37 (Dense)            (None, 8)                 72        
                                                                 
 dense_38 (Dense)            (None, 8)                 72        
                                                                 
 dense_39 (Dense)            (None, 8)                 72        
                                                                 
 dense_40 (Dense)            (None, 8)                 72        
                                                                 
 dense_41 (Dense)            (None, 8)                 72        
                                                                 
 dense_42 (Dense)            (None, 8)                 72        
                                                                 
 dense_43 (Dense)            (None, 1)                 9         
                                                                 
=================================================================
Total params: 273,857
Trainable params: 273,857
Non-trainable params: 0
_________________________________________________________________
*****************************************
-------------------------------
unique model id: model_bigger_biggest_lstm_v8-Adagrad0,008
…
unique model id: model_bigger_biggest_lstm_v2_leaky_relu-Nadam0,1
optimizer: Nadam<tf.Variable 'learning_rate:0' shape=() dtype=float32, numpy=0.1>
-------------------------------
loss : [… tp : [… tn : [… accuracy : [… precision : [… val_loss : [… val_tp : [… val_tn : [… val_accuracy : [… val_precision : [… 1120    0]
 [ 227    0]]
*****************************************
model_double_lstm_double_layers
Model: "sequential_18"
_________________________________________________________________
 Layer (type)                Output Shape              Param #   
=================================================================
 lstm_19 (LSTM)              (None, 300, 16)           1600      
                                                                 
 lstm_20 (LSTM)              (None, 300, 16)           2112      
                                                                 
 lstm_21 (LSTM)              (None, 8)                 800       
                                                                 
 dense_53 (Dense)            (None, 4)                 36        
                                                                 
 dense_54 (Dense)            (None, 1)                 5         
                                                                 
=================================================================
Total params: 4,553
Trainable params: 4,553
Non-trainable params: 0
_________________________________________________________________
*****************************************
-------------------------------
unique model id: model_double_lstm_double_layers-Adagrad0,008
…
