(7729, 300, 8)
(7729,)
epochs: 3
Shuffle: False
[1. 1. 1. ... 1. 1. 1.]
(6183, 300, 8)
weight0: 5.093080724876441
weight1: 0.5544296987087518
*****************************************
model_simple_ltsm
Model: "sequential"
_________________________________________________________________
 Layer (type)                Output Shape              Param #   
=================================================================
 lstm (LSTM)                 (None, 4)                 208       
                                                                 
 dense (Dense)               (None, 8)                 40        
                                                                 
 dense_1 (Dense)             (None, 16)                144       
                                                                 
 dense_2 (Dense)             (None, 4)                 68        
                                                                 
 dense_3 (Dense)             (None, 1)                 5         
                                                                 
=================================================================
Total params: 465
Trainable params: 465
Non-trainable params: 0
_________________________________________________________________
*****************************************
-------------------------------
unique model id: model_simple_ltsm-Adagrad0,008
optimizer: Adagrad<tf.Variable 'learning_rate:0' shape=() dtype=float32, numpy=0.008>
…
precision : [0.8933836221694946, 0.905940592288971, 0.9040403962135315]
val_loss : [0.691007673740387, 0.6940308213233948, 0.6968017220497131]
val_tp : [1308.0, 0.0, 0.0]
val_tn : [0.0, 238.0, 238.0]
val_accuracy : [0.8460543155670166, 0.1539456695318222, 0.1539456695318222]
val_precision : [… 0 1120]
 [   0  227]]
*****************************************
model_bigger_biggest_lstm_v8
Model: "sequential_14"
_________________________________________________________________
 Layer (type)                Output Shape              Param #   
=================================================================
 lstm_14 (LSTM)              (None, 256)               271360    
                                                                 
 dense_36 (Dense)            (None, 8)                 2056      
                                                                 
 dense_37 (Dense)            (None, 8)                 72        
                                                                 
 dense_38 (Dense)            (None, 8)                 72        
                                                                 
 dense_39 (Dense)            (None, 8)                 72        
                                                                 
 dense_40 (Dense)            (None, 8)                 72        
                                                                 
 dense_41 (Dense)            (None, 8)                 72        
                                                                 
 dense_42 (Dense)            (None, 8)                 72        
                                                                 
 dense_43 (Dense)            (None, 1)                 9         
                                                                 
=================================================================
Total params: 273,857
Trainable params: 273,857
Non-trainable params: 0
_________________________________________________________________
*****************************************
-------------------------------
unique model id: model_bigger_biggest_lstm_v8-Adagrad0,008
…
precision : [0.9592882394790649, 0.9970967173576355, 0.9970967173576355]
val_loss : [2.912045478820801, 1.0056880712509155, 1.2406678199768066]
val_tp : [1308.0, 1308.0, 1308.0]
val_tn : [0.0, 0.0, 0.0]
val_accuracy : [0.8460543155670166, 0.8460543155670166, 0.8460543155670166]
val_precision : [… 1120    0]
 [ 227    0]]
*****************************************
model_double_lstm_double_layers
Model: "sequential_18"
_________________________________________________________________
 Layer (type)                Output Shape              Param #   
=================================================================
 lstm_19 (LSTM)              (None, 300, 16)           1600      
                                                                 
 lstm_20 (LSTM)              (None, 300, 16)           2112      
                                                                 
 lstm_21 (LSTM)              (None, 8)                 800       
                                                                 
 dense_53 (Dense)            (None, 4)                 36        
                                                                 
 dense_54 (Dense)            (None, 1)                 5         
                                                                 
=================================================================
Total params: 4,553
Trainable params: 4,553
Non-trainable params: 0
_________________________________________________________________
*****************************************
-------------------------------
unique model id: model_double_lstm_double_layers-Adagrad0,008
…
