…
x': 1483.5494}, 595: {'min': 0.01135, 'max': 4.45459}, 596: {'min': -37.76155, 'max': 38.57898}, 597: {'min': -208.19109, 'max': 14.65003}, 598: {'min': 4.49964, 'max': 120.70314}, 599: {'min': 4.43518, 'max': 173.73126}}"
class 0 weight: 2.7207462571185608
class 1 weight: 1.5811432079907755
*****************************************
stacked_lstm_v2
Model: "sequential_8"
_________________________________________________________________
 Layer (type)                Output Shape              Param #   
=================================================================
 lstm_11 (LSTM)              (None, 2, 600)            2882400   
                                                                 
 lstm_12 (LSTM)              (None, 2, 600)            2882400   
                                                                 
 lstm_13 (LSTM)              (None, 2, 600)            2882400   
                                                                 
 lstm_14 (LSTM)              (None, 2, 600)            2882400   
                                                                 
 lstm_15 (LSTM)              (None, 600)               2882400   
                                                                 
 dense_21 (Dense)            (None, 1200)              721200    
                                                                 
 leaky_re_lu_1 (LeakyReLU)   (None, 1200)              0         
                                                                 
 dense_22 (Dense)            (None, 600)               720600    
                                                                 
 leaky_re_lu_2 (LeakyReLU)   (None, 600)               0         
                                                                 
 dense_23 (Dense)            (None, 1)                 601       
                                                                 
=================================================================
Total params: 15,854,401
Trainable params: 15,854,401
Non-trainable params: 0
_________________________________________________________________
*****************************************
-------------------------------
unique model id: stacked_lstm_v2-Adagrad0,008 wdecay: None ema:False
…
