(7729, 300, 8)
(7729,)
[1. 1. 1. ... 1. 1. 1.]
(6183, 300, 8)
weight0: 5.093080724876441
weight1: 0.5544296987087518
*****************************************
model_simple_ltsm
Model: "sequential"
_________________________________________________________________
 Layer (type)                Output Shape              Param #   
=================================================================
 lstm (LSTM)                 (None, 4)                 208       
                                                                 
 dense (Dense)               (None, 8)                 40        
                                                                 
 dense_1 (Dense)             (None, 16)                144       
                                                                 
 dense_2 (Dense)             (None, 4)                 68        
                                                                 
 dense_3 (Dense)             (None, 1)                 5         
                                                                 
=================================================================
Total params: 465
Trainable params: 465
Non-trainable params: 0
_________________________________________________________________
