(13696, 300, 8)
(13696,)
epochs: 30
Shuffle: True
[1. 1. 1. ... 1. 1. 1.]
(10956, 300, 8)
weight0: 2.973941368078176
weight1: 1.5066006600660065
*****************************************
model_stacked_v6
Model: "sequential_18"
_________________________________________________________________
 Layer (type)                Output Shape              Param #   
=================================================================
 lstm_17 (LSTM)              (None, 64)                18688     
                                                                 
 repeat_vector (RepeatVector  (None, 8, 64)            0         
 )                                                               
                                                                 
 lstm_18 (LSTM)              (None, 64)                33024     
                                                                 
 repeat_vector_1 (RepeatVect  (None, 8, 64)            0         
 or)                                                             
                                                                 
 lstm_19 (LSTM)              (None, 64)                33024     
                                                                 
 repeat_vector_2 (RepeatVect  (None, 8, 64)            0         
 or)                                                             
                                                                 
 lstm_20 (LSTM)              (None, 64)                33024     
                                                                 
 repeat_vector_3 (RepeatVect  (None, 8, 64)            0         
 or)                                                             
                                                                 
 lstm_21 (LSTM)              (None, 64)                33024     
                                                                 
 repeat_vector_4 (RepeatVect  (None, 8, 64)            0         
 or)                                                             
                                                                 
 lstm_22 (LSTM)              (None, 64)                33024     
                                                                 
 repeat_vector_5 (RepeatVect  (None, 8, 64)            0         
 or)                                                             
                                                                 
 lstm_23 (LSTM)              (None, 8, 64)             33024     
                                                                 
 time_distributed (TimeDistr  (None, 8, 1)             65        
 ibuted)                                                         
                                                                 
=================================================================
Total params: 216,897
Trainable params: 216,897
Non-trainable params: 0
_________________________________________________________________
*****************************************
-------------------------------
…
