(13696, 300, 8)
(13696,)
epochs: 30
Shuffle: True
[1. 1. 1. ... 1. 1. 1.]
(10956, 300, 8)
weight0: 1.486970684039088
weight1: 0.8022648514851484
*****************************************
model_simple_ltsm
Model: "sequential"
_________________________________________________________________
 Layer (type)                Output Shape              Param #   
=================================================================
 lstm (LSTM)                 (None, 4)                 208       
                                                                 
 dense (Dense)               (None, 8)                 40        
                                                                 
 dense_1 (Dense)             (None, 16)                144       
                                                                 
 dense_2 (Dense)             (None, 4)                 68        
                                                                 
 dense_3 (Dense)             (None, 1)                 5         
                                                                 
=================================================================
Total params: 465
Trainable params: 465
Non-trainable params: 0
_________________________________________________________________
*****************************************
-------------------------------
unique model id: model_simple_ltsm-Adagrad0,008
optimizer: Adagrad<tf.Variable 'learning_rate:0' shape=() dtype=float32, numpy=0.008>
…
unique model id: model_bigger_biggest_lstm_v7-Nadam0,01
optimizer: Nadam<tf.Variable 'learning_rate:0' shape=() dtype=float32, numpy=0.01>
-------------------------------
loss : [… tp : [… tn : [… accuracy : [… precision : [… val_loss : [… val_tp : [… val_tn : [… val_accuracy : [… val_precision : [… 1269 2514]
 [ 150  526]]
*****************************************
model_bigger_biggest_lstm_v8
Model: "sequential_14"
_________________________________________________________________
 Layer (type)                Output Shape              Param #   
=================================================================
 lstm_14 (LSTM)              (None, 256)               271360    
                                                                 
 dense_36 (Dense)            (None, 8)                 2056      
                                                                 
 dense_37 (Dense)            (None, 8)                 72        
                                                                 
 dense_38 (Dense)            (None, 8)                 72        
                                                                 
 dense_39 (Dense)            (None, 8)                 72        
                                                                 
 dense_40 (Dense)            (None, 8)                 72        
                                                                 
 dense_41 (Dense)            (None, 8)                 72        
                                                                 
 dense_42 (Dense)            (None, 8)                 72        
                                                                 
 dense_43 (Dense)            (None, 1)                 9         
                                                                 
=================================================================
Total params: 273,857
Trainable params: 273,857
Non-trainable params: 0
_________________________________________________________________
*****************************************
-------------------------------
unique model id: model_bigger_biggest_lstm_v8-Adagrad0,008
…
optimizer: Nadam<tf.Variable 'learning_rate:0' shape=() dtype=float32, numpy=0.01>
-------------------------------
loss : [… tp : [… tn : [… accuracy : [… precision : [… val_loss : [… val_tp : [… val_tn : [… val_accuracy : [… val_precision : [… 896 2887]
 [  24  652]]
*****************************************
model_bigger_biggest_lstm_v12_half_bank
Model: "sequential_15"
_________________________________________________________________
 Layer (type)                Output Shape              Param #   
=================================================================
 lstm_15 (LSTM)              (None, 256)               271360    
                                                                 
 dense_44 (Dense)            (None, 12)                3084      
                                                                 
 dense_45 (Dense)            (None, 12)                156       
                                                                 
 dense_46 (Dense)            (None, 12)                156       
                                                                 
 dense_47 (Dense)            (None, 12)                156       
                                                                 
 dense_48 (Dense)            (None, 12)                156       
                                                                 
 dense_49 (Dense)            (None, 12)                156       
                                                                 
 dense_50 (Dense)            (None, 12)                156       
                                                                 
 dense_51 (Dense)            (None, 12)                156       
                                                                 
 dense_52 (Dense)            (None, 12)                156       
                                                                 
 dense_53 (Dense)            (None, 12)                156       
                                                                 
 dense_54 (Dense)            (None, 12)                156       
                                                                 
 dense_55 (Dense)            (None, 1)                 13        
                                                                 
=================================================================
Total params: 276,017
Trainable params: 276,017
Non-trainable params: 0
_________________________________________________________________
*****************************************
-------------------------------
unique model id: model_bigger_biggest_lstm_v12_half_bank-Adagrad0,008
…
unique model id: model_bigger_biggest_lstm_v12_half_bank-Nadam0,01
optimizer: Nadam<tf.Variable 'learning_rate:0' shape=() dtype=float32, numpy=0.01>
-------------------------------
loss : [… tp : [… tn : [… accuracy : [… precision : [… val_loss : [… val_tp : [… val_tn : [… val_accuracy : [… val_precision : [… 3783    0]
 [ 676    0]]
*****************************************
model_bigger_biggest_lstm_v16
Model: "sequential_16"
_________________________________________________________________
 Layer (type)                Output Shape              Param #   
=================================================================
 lstm_16 (LSTM)              (None, 256)               271360    
                                                                 
 dense_56 (Dense)            (None, 16)                4112      
                                                                 
 dense_57 (Dense)            (None, 16)                272       
                                                                 
 dense_58 (Dense)            (None, 16)                272       
                                                                 
 dense_59 (Dense)            (None, 16)                272       
                                                                 
 dense_60 (Dense)            (None, 16)                272       
                                                                 
 dense_61 (Dense)            (None, 16)                272       
                                                                 
 dense_62 (Dense)            (None, 16)                272       
                                                                 
 dense_63 (Dense)            (None, 16)                272       
                                                                 
 dense_64 (Dense)            (None, 16)                272       
                                                                 
 dense_65 (Dense)            (None, 16)                272       
                                                                 
 dense_66 (Dense)            (None, 16)                272       
                                                                 
 dense_67 (Dense)            (None, 16)                272       
                                                                 
 dense_68 (Dense)            (None, 16)                272       
                                                                 
 dense_69 (Dense)            (None, 16)                272       
                                                                 
 dense_70 (Dense)            (None, 1)                 17        
                                                                 
=================================================================
Total params: 279,025
Trainable params: 279,025
Non-trainable params: 0
_________________________________________________________________
*****************************************
-------------------------------
unique model id: model_bigger_biggest_lstm_v16-Adagrad0,008
…
unique model id: model_bigger_biggest_lstm_v16-Nadam0,01
optimizer: Nadam<tf.Variable 'learning_rate:0' shape=() dtype=float32, numpy=0.01>
-------------------------------
loss : [… tp : [… tn : [… accuracy : [… precision : [… val_loss : [… val_tp : [… val_tn : [… val_accuracy : [… val_precision : [… 3783    0]
 [ 676    0]]
*****************************************
model_double_lstm_double_layers
Model: "sequential_20"
_________________________________________________________________
 Layer (type)                Output Shape              Param #   
=================================================================
 lstm_21 (LSTM)              (None, 300, 16)           1600      
                                                                 
 lstm_22 (LSTM)              (None, 300, 16)           2112      
                                                                 
 lstm_23 (LSTM)              (None, 8)                 800       
                                                                 
 dense_80 (Dense)            (None, 4)                 36        
                                                                 
 dense_81 (Dense)            (None, 1)                 5         
                                                                 
=================================================================
Total params: 4,553
Trainable params: 4,553
Non-trainable params: 0
_________________________________________________________________
*****************************************
-------------------------------
unique model id: model_double_lstm_double_layers-Adagrad0,008
…
