(13696, 300, 8)
(13696,)
epochs: 20
Shuffle: False
[1. 1. 1. ... 1. 1. 1.]
(10956, 300, 8)
weight0: 1.4082262210796914
weight1: 0.7752618171525615
*****************************************
model_simple_ltsm
Model: "sequential"
_________________________________________________________________
 Layer (type)                Output Shape              Param #   
=================================================================
 lstm (LSTM)                 (None, 4)                 208       
                                                                 
 dense (Dense)               (None, 8)                 40        
                                                                 
 dense_1 (Dense)             (None, 16)                144       
                                                                 
 dense_2 (Dense)             (None, 4)                 68        
                                                                 
 dense_3 (Dense)             (None, 1)                 5         
                                                                 
=================================================================
Total params: 465
Trainable params: 465
Non-trainable params: 0
_________________________________________________________________
*****************************************
-------------------------------
unique model id: model_simple_ltsm-Adagrad0,008
optimizer: Adagrad<tf.Variable 'learning_rate:0' shape=() dtype=float32, numpy=0.008>
…
unique model id: model_bigger_biggest_lstm_v7-Nadam0,1
optimizer: Nadam<tf.Variable 'learning_rate:0' shape=() dtype=float32, numpy=0.1>
-------------------------------
loss : [… tp : [… tn : [… accuracy : [… precision : [… val_loss : [… val_tp : [… val_tn : [… val_accuracy : [… val_precision : [… 0 3783]
 [   0  676]]
*****************************************
model_bigger_biggest_lstm_v8
Model: "sequential_14"
_________________________________________________________________
 Layer (type)                Output Shape              Param #   
=================================================================
 lstm_14 (LSTM)              (None, 256)               271360    
                                                                 
 dense_36 (Dense)            (None, 8)                 2056      
                                                                 
 dense_37 (Dense)            (None, 8)                 72        
                                                                 
 dense_38 (Dense)            (None, 8)                 72        
                                                                 
 dense_39 (Dense)            (None, 8)                 72        
                                                                 
 dense_40 (Dense)            (None, 8)                 72        
                                                                 
 dense_41 (Dense)            (None, 8)                 72        
                                                                 
 dense_42 (Dense)            (None, 8)                 72        
                                                                 
 dense_43 (Dense)            (None, 1)                 9         
                                                                 
=================================================================
Total params: 273,857
Trainable params: 273,857
Non-trainable params: 0
_________________________________________________________________
*****************************************
-------------------------------
unique model id: model_bigger_biggest_lstm_v8-Adagrad0,008
…
