…
unique model id: model_one_layer_ltsm-Adam0,0014
optimizer: Adam<tf.Variable 'learning_rate:0' shape=() dtype=float32, numpy=0.0014>
-------------------------------
loss : [… tp : [… tn : [… accuracy : [… precision : [… val_loss : [… val_tp : [… val_tn : [… val_accuracy : [… val_precision : [… 1080    0]
 [ 221    0]]
*****************************************
model_bigger_biggest_lstm_v8
Model: "sequential_14"
_________________________________________________________________
 Layer (type)                Output Shape              Param #   
=================================================================
 lstm_14 (LSTM)              (None, 256)               271360    
                                                                 
 dense_36 (Dense)            (None, 8)                 2056      
                                                                 
 dense_37 (Dense)            (None, 8)                 72        
                                                                 
 dense_38 (Dense)            (None, 8)                 72        
                                                                 
 dense_39 (Dense)            (None, 8)                 72        
                                                                 
 dense_40 (Dense)            (None, 8)                 72        
                                                                 
 dense_41 (Dense)            (None, 8)                 72        
                                                                 
 dense_42 (Dense)            (None, 8)                 72        
                                                                 
 dense_43 (Dense)            (None, 1)                 9         
                                                                 
=================================================================
Total params: 273,857
Trainable params: 273,857
Non-trainable params: 0
_________________________________________________________________
*****************************************
-------------------------------
unique model id: model_bigger_biggest_lstm_v8-SGD1e-04
…
