(13696, 300, 8)
(13696,)
epochs: 30
Shuffle: True
[1. 1. 1. ... 1. 1. 1.]
(10956, 300, 8)
weight0: 1.486970684039088
weight1: 0.7758993399339933
*****************************************
model_stacked_v6
Model: "sequential_18"
_________________________________________________________________
 Layer (type)                Output Shape              Param #   
=================================================================
 lstm_17 (LSTM)              (None, 300, 128)          70144     
                                                                 
 lstm_18 (LSTM)              (None, 300, 128)          131584    
                                                                 
 lstm_19 (LSTM)              (None, 300, 128)          131584    
                                                                 
 lstm_20 (LSTM)              (None, 300, 128)          131584    
                                                                 
 lstm_21 (LSTM)              (None, 64)                49408     
                                                                 
 dense_71 (Dense)            (None, 1)                 65        
                                                                 
=================================================================
Total params: 514,369
Trainable params: 514,369
Non-trainable params: 0
_________________________________________________________________
*****************************************
-------------------------------
unique model id: model_stacked_v6-SGD1e-04
optimizer: SGD<tf.Variable 'learning_rate:0' shape=() dtype=float32, numpy=1e-04>
…
